workload_preprocessing/infer_onnx/mlperf/resnet50/resnet50_v1_tmp.onnx (onnx, 43207 bytes, 15 tensors)

resnet_model/conv2d_9/Conv2D_bias_fused_bn f4 [64]
00000000: 6084 9e3f 2c10 c13f f3c1 2fbf 0a14 5bbf
00000010: 294a 9f3f 9f0b 233f 4c05 f8be ac45 09bf
00000020: 14d9 b7be 1b74 11bf 3006 503d 24f5 583f
00000030: 2014 a0bd a0ae 273d e639 a93e f0e3 ee3d
00000040: 5996 b3be 6243 4cbf 6e20 3f3e 139f 693e
00000050: ebc3 83bf 7c03 8bbf e2f0 bfbf 8424 b83e
00000060: b465 b33f bcc5 4cbf 3d60 08bf 78ec b8bf
00000070: 403b 9e3f 6bdf 603f dc98 043f b7eb 6dbf
00000080: ae9a d4bf bcf7 f9bf 1ecd a93f f0b2 7bbd
00000090: c52c 933e f418 2c3e 577e 183f 8f47 7d3e
000000a0: 9bf5 f7bf 3081 9a3d 3fd5 bb3e 6c2f 2f3f
000000b0: a63f 203e c8af 06be 08cc 97bd 4bd5 f83e
000000c0: 9008 a03e 3bf9 75bf 84de 11be 80d8 88bb
000000d0: 94fa 15c0 3c89 48bf 5024 683d 3ec3 833f
000000e0: 267b 803f b0ae a43f 9a91 273e 5611 07bf
000000f0: 88eb a43f cebf 7ebe 5407 56be 408e bf3f
1.2384148 1.508306 -0.6865532 -0.8557745 1.2444507 0.6368961 -0.4844154 -0.53621936
-0.35907805 -0.5681779 0.05078715 0.84749055 -0.078163385 0.04093802 0.33051986 0.116645694
-0.35075644 -0.7979032 0.18664715 0.22814588 -1.0294164 -1.0860438 -1.4995387 0.3596536
1.4015412 -0.7998922 -0.5327185 -1.4447165 1.2361832 0.8784091 0.51795745 -0.929378
-1.6609704 -1.9528728 1.3265722 -0.061449945 0.28745094 0.16806394 0.5956778 0.24734329
-1.9371828 0.07544172 0.3668613 0.68431735 0.1564928 -0.13152993 -0.07411963 0.4860023
0.31256533 -0.9608342 -0.14245039 -0.0041761994 -2.343419 -0.78334403 0.056675255 1.0293958
1.0037582 1.286581 0.16364136 -0.5276083 1.2884378 -0.24877855 -0.20901233 1.4965286

resnet_model/conv2d_8/Conv2D_bias_fused_bn f4 [64]
00000000: a624 b1be 83c6 72be c63d cebf 9ee9 963f
00000010: e832 c9bf 24c5 903f f289 43bf 6a76 393f
00000020: 9742 243f 6e5a 963e 4081 89bf e46a 2c3f
00000030: e55c 6b3f cecd 113e 8cac 96bf ca7b fbbe
00000040: 30b0 eb3c 2d6d 033e 59f1 c53f 1c38 ae3e
00000050: ac87 383f 3c69 c03d bc13 acbf 4271 1d3f
00000060: 769a 71bd 7012 a53f 7eb9 cd3e 013d 00bf
00000070: 9829 cfbe 272f a43f 10c3 dbbe cce5 1c3f
00000080: 286f 0440 3b16 0dbf 50ed 323d e0bb 5ebd
00000090: 8319 28be badf e9bf 79c1 0e40 d809 1e40
000000a0: 7802 973f 93e1 473f e42f eabe 9ef3 c23f
000000b0: de47 f23f e426 c4be fe08 adbf d924 23bf
000000c0: c170 293f 109f 243f 4cfd a53f 034c 3c3f
000000d0: 98b4 133f 3ca5 17be c6ad 06be 3927 c13f
000000e0: b1b1 0e3f 4b3b 333e a191 84bf aa6d 7fbf
000000f0: 8e4a e8bf 0bdf 3bbf 1260 a73f 7040 d3bc
-0.34598273 -0.23708539 -1.6112602 1.1790044 -1.571866 1.1310163 -0.7638236 0.7244631
0.6416411 0.29365867 -1.0742569 0.673506 0.9193862 0.14238665 -1.1771407 -0.4911788
0.028770536 0.12834616 1.5464278 0.34027183 0.7208202 0.09395072 -1.3443522 0.6150094
-0.058985196 1.2896252 0.40180582 -0.50093085 -0.4046142 1.282689 -0.42922258 0.6128814
2.0692844 -0.55112046 0.04368335 -0.05437839 -0.16415982 -1.8271401 2.2305586 2.4693508
1.1797628 0.78078574 -0.45739663 1.5230596 1.8928182 -0.3831092 -1.3518369 -0.637281
0.66187674 0.6430521 1.2967925 0.73553485 0.5769744 -0.14809126 -0.13152227 1.5090095
0.55739886 0.17503087 -1.0356942 -0.9977671 -1.8147752 -0.7338721 1.3076193 -0.025787562

resnet_model/conv2d_6/Conv2D_bias_fused_bn f4 [64]
00000000: c951 0240 6b8d 883e a639 1440 2a6a 383e
00000010: e678 88bf 10ee 53be e528 b73e fa65 9a40
00000020: a0ea 7940 b06f fe3f f12b 28bf 4929 903f
00000030: 9091 c03f 0e2a c73f 1e80 e93e e40f 65be
00000040: 5057 0a3f 2895 1fbe cb83 1a40 5bf8 9a3f
00000050: a2fc 0c3f 5606 7e3f f02e 20bf d533 0340
00000060: b0a2 2bbd 75e2 7bbf 04d5 ae3e 646b a83e
00000070: a99d 4740 fcfe 8bbe 9e3a 483f a245 363f
00000080: 1e4e 1340 9d2e df3f c02e 74be 1a96 80be
00000090: 4930 0640 9eed 34be 2a69 cdbd e1ce 85bf
000000a0: 9fa6 de3f 40b5 cbbd a123 403f e3e7 363f
000000b0: 8ac3 1e40 f4a9 9f3e 1588 b03f 7629 aabf
000000c0: c946 133f 6e9f 4a3f 4803 a13f ece1 053e
000000d0: 9891 913f a6d6 37c0 98ae 85bf d178 b73f
000000e0: 4426 533f 3ff0 23c0 55fc 7c40 88e8 b93e
000000f0: c4ef 153f 1abf 1a40 4e24 15c0 9d71 0b3f
2.0362418 0.26670393 2.3160186 0.18009248 -1.0661895 -0.20696282 0.35773388 4.8249483
3.9049454 1.9877834 -0.6569205 1.1262599 1.5044422 1.5559709 0.45605558 -0.22369343
0.5403948 -0.15584242 2.414294 1.2107042 0.5507299 0.9922842 -0.6257162 2.0500386
-0.041903198 -0.9839242 0.34146893 0.32894433 3.1189978 -0.27342975 0.7821444 0.712
2.301643 1.74361 -0.23845959 -0.25114518 2.096697 -0.17668769 -0.10029824 -1.045376
1.7394599 -0.0994668 0.75054365 0.7144758 2.4806848 0.3118435 1.3791529 -1.3293903
0.57529885 0.7914952 1.2579126 0.13074464 1.1372557 -2.872476 -1.0443907 1.4333745
0.82480264 -2.5615385 3.9529011 0.3631022 0.5856898 2.417914 -2.3303409 0.54470235

resnet_model/conv2d_5/Conv2D_bias_fused_bn f4 [64]
00000000: d82d 663f 2021 973f ba72 e8be 60c6 613d
00000010: 5956 07c0 0149 113f 178b e63f 671b 47c0
00000020: c116 cc3f 7d20 4940 fba9 7dbe ebdf c03f
00000030: c129 1940 fb96 7340 141c 0f40 a2f5 d2bf
00000040: 8779 823f 2914 8b3f d7e9 2840 9042 e23f
00000050: b0bc d9be 4022 46be c567 183f ec39 9bbf
00000060: cbab 2740 56b9 333f 13bb 95be 8ca8 923e
00000070: b0a9 c8bd 413f e03f cdae 923f 2302 ae3f
00000080: 3634 be3f e09a 1a40 126e 373f e020 73be
00000090: c381 123f af6b 84bf 9010 e1bf 442d 6f3f
000000a0: aeb6 94bf 97b4 ca3f 341f fc3f 7504 433f
000000b0: 66fc 103f 3472 373e bf1e 76bf facd dcbe
000000c0: de09 aabe 5305 ee3f 2caa 76bf 7672 e1be
000000d0: af74 6dbf 4c6f 973f f64e c43f eac3 debe
000000e0: 4599 a33f c666 e53e 7836 30bf f17d 0b3f
000000f0: 4221 5e3f 78c8 343f 9e11 953f a623 a23e
0.899137 1.1806984 -0.4540003 0.055120826 -2.1146452 0.5675202 1.8011197 -3.1110475
1.5944444 3.142608 -0.24771874 1.5068334 2.3931735 3.80609 2.2360888 -1.6481211
1.0193337 1.0865527 2.6392725 1.7676563 -0.4252677 -0.19349003 0.5953334 -1.2127051
2.6198604 0.70204675 -0.2924429 0.28644216 -0.0979799 1.7519304 1.1459595 1.3594402
1.4859684 2.4157028 0.7165233 -0.2374301 0.5722925 -1.0345362 -1.758318 0.93428445
-1.161825 1.5836362 1.9697022 0.76178676 0.5663513 0.17914659 -0.96140665 -0.43125898
-0.33210653 1.8595375 -0.9635341 -0.4403264 -0.9275617 1.183084 1.5336597 -0.43508846
1.2781149 0.44804972 -0.6883311 0.54489046 0.867695 0.7061839 1.1646001 0.31667823

resnet_model/conv2d_3/Conv2D_bias_fused_bn f4 [64]
00000000: 495e a23e be68 9c40 be65 693f 28fc 813f
00000010: 23d1 31bf 319a 7a40 6cc9 0c40 f7a5 2a40
00000020: d810 80bf 6863 f1be 733a 9340 85ce 8a3f
00000030: 0a20 4140 0451 8c3f 042d 8740 32ed 38bf
00000040: 853b 82bf 6613 0540 d1f7 a53f 4c28 85be
00000050: 215e 4840 a805 adbe 9c81 9d3e 4b23 4440
00000060: 503b 18bf 7cd7 cf3f 7a7b 29be c281 c23f
00000070: d522 96bf 92e4 edbe e7b3 eebf b89e d9be
00000080: fdb6 86c0 75ea 4a40 d8eb fcbc 2fec 7e3f
00000090: 3c9c e2bf 06ac b33e abf6 9ebf 5c6b 1e40
000000a0: adae 053f 479f 39bf 7ad3 5040 f840 9640
000000b0: eeeb c8bf 32ea 2a3f c982 a9bf 50ad 9b40
000000c0: 7e1b 78bf 0ce4 acbf 2ad7 c0be 7341 14bf
000000d0: 552b 803e 608c e3bd ba9d 1640 ccef 1ec0
000000e0: 8701 06c0 1c37 6a3f bfad dbbf ba5c 173f
000000f0: 85b9 b23f a465 06be c4d1 2c3f a6ae 183f
0.3171256 4.887786 0.9117087 1.0155077 -0.6945974 3.915661 2.1997938 2.6663797
-1.000514 -0.47146153 4.600885 1.0844275 3.0175805 1.0962224 4.224245 -0.7223693
-1.0174414 2.079309 1.2966253 -0.26007307 3.1307452 -0.33793378 0.30762947 3.064654
-0.59465504 1.6237636 -0.16551009 1.5195849 -1.172938 -0.46463448 -1.8648652 -0.42503905
-4.2098374 3.1705601 -0.030874178 0.9957914 -1.7703929 0.3509218 -1.2419027 2.4753027
0.5221966 -0.7250866 3.2629075 4.6954308 -1.5697 0.66763604 -1.3243037 4.8649063
-0.9691695 -1.3507094 -0.37664157 -0.5791237 0.2503306 -0.11110759 2.3533769 -2.483386
-2.0938432 0.9149034 -1.7162398 0.59125865 1.3962866 -0.1312471 0.67507577 0.5964149

resnet_model/conv2d_22/Conv2D_bias_fused_bn f4 [128]
00000000: 90fe f43d 989b 9e3d 5e04 94bf 1e74 61bf
00000010: 388b 9ebd c4a1 a9be ea72 8abe 945c 20be
00000020: a471 ccbf a0c1 8dbe f47f 38be 1089 7dbf
00000030: 23fd 8a3f 343c 69bf aab5 ebbe fad8 da3e
00000040: b00d 2ebe a65e 14bf 024e 953e 5051 f0bf
00000050: 68ec fb3d 8895 a8bd 8026 bc3c 28cf a2be
00000060: 9380 07bf 61ac ddbf 56ee 40be c08b 433e
00000070: 3035 c53e ac79 30bf 83b6 35bf 8818 dcbe
00000080: 081d 7fbf d033 453e 0008 6cbc 98be ff3e
00000090: 928e 863e c474 503e 809a 45bd 5007 923e
000000a0: 04f5 89bf 1ea5 82bf 240a 373e 2400 79bf
000000b0: 0005 cc3d caf9 673f f8a5 033e cf4f f9be
000000c0: 6c4b 9fbf c830 f0bf bb70 82bf b479 5a3f
000000d0: 145b 2fc0 a052 673c c034 fa3c 709b cbbf
000000e0: 54b3 79bf 40a7 863b 4efa 3f3f aacf 3dbf
000000f0: 2881 ad3e c360 2fbf dad5 8c3e 0a87 c03f
00000100: 63a5 73bf 4543 01bf f5b3 04bf 0446 0dbf
00000110: 7037 a73e ce22 a3bf 0854 85be 42ea 01bf
00000120: c496 88be 8493 b9be 268a 4a3f b409 78be
00000130: 0d03 7ebf a4b9 98c0 4038 d03f 52fb 8c3f
00000140: ee19 64bf 50f2 25bf 1cf1 39bf 0056 88bc
00000150: 0c38 62be 544e 15bf 6ab6 babf fa39 67bf
00000160: 8868 77be fcc0 313e e259 283f 7d0d 5e3f
00000170: 8302 13bf e74d cabe 6e2e 0fc0 1c9b 1ac0
00000180: 6e10 83bf 04cb 70bf b4ef ad3e dd3f 3cbf
00000190: fc56 e3bf 189b 0dbe a34e 5cbf 7c7b ec3e
000001a0: 88a7 70be 7535 253f 5e7d 9dbe d023 113f
000001b0: 98e2 f1bf fc4b 0abe 9867 cd3e 8854 d4bd
000001c0: 9c4d c53e 2941 90be 1500 4c3f 101c 1ebf
000001d0: 8099 78bc dec5 33bf 26c4 c63f 6c73 40be
000001e0: da37 9e3f 1e40 1b3f 9de8 bcbf 6a8a f1bf
000001f0: 8c9d 9cbf 77cf 1b40 20cf 4d3e 4c1f aabe
0.119626164 0.07744521 -1.1563833 -0.88067806 -0.077413976 -0.3313123 -0.27040797 -0.15660316
-1.597218 -0.27686787 -0.1801756 -0.99037266 1.0858501 -0.9110749 -0.46037036 0.42743665
-0.16997409 -0.5795692 0.29161078 -1.8774815 0.1230095 -0.08231646 0.022967577 -0.31798673
-0.52930564 -1.7318231 -0.18840918 0.19096279 0.3851714 -0.68935657 -0.70981616 -0.42987466
-0.99653673 0.19258046 -0.014406204 0.499501 0.26280648 0.20357043 -0.048243046 0.28521204
-1.0777898 -1.020664 0.17874962 -0.9726584 0.09961891 0.9061552 0.12856281 -0.48693702
-1.2444892 -1.8764887 -1.0190653 0.85341954 -2.739934 0.01411882 0.030542731 -1.5906811
-0.9753926 0.004109293 0.7499131 -0.74144995 0.338876 -0.6850702 0.27506906 1.5041211
-0.95174235 -0.5049327 -0.5183709 -0.5518496 0.32659483 -1.2744997 -0.26040673 -0.50748074
-0.26677525 -0.36245358 0.7911705 -0.24222451 -0.99223405 -4.772661 1.6267166 1.1014197
-0.89102066 -0.64822865 -0.7263353 -0.01664257 -0.22091693 -0.58322644 -1.4586918 -0.9032284
-0.2416097 0.17358774 0.6576215 0.8673933 -0.5742571 -0.3951256 -2.2372088 -2.4157171
-1.0239389 -0.9405978 0.3397194 -0.7353495 -1.776092 -0.13828695 -0.8605749 0.4618796
-0.23501408 0.64534694 -0.3075971 0.5669527 -1.8897276 -0.13505548 0.40118098 -0.103676856
0.38535774 -0.28174713 0.79687625 -0.6176157 -0.015173316 -0.70223796 1.552861 -0.1879403
1.2360795 0.6064471 -1.4758488 -1.8870366 -1.223558 2.4345376 0.20098543 -0.33227003

resnet_model/conv2d_21/Conv2D_bias_fused_bn f4 [128]
00000000: e0aa dcbd c0a6 14bd e304 893f 6ca2 37c0
00000010: 60ec 113d a675 0fbf a2db fbbe 80e7 343f
00000020: e831 783f 38f7 a6be beac 233e def6 cb3e
00000030: a0ef 973f e125 21be a073 ee3c 8a8f 35bf
00000040: 77e6 773f 822c 5e3e 50b7 84bd d1f7 013f
00000050: e0ba 9a3d 44c5 a93f 2004 393e 5056 52bf
00000060: 1681 41bf 10bf 7e3f cb98 4fbf 08d4 d23e
00000070: fed1 b83f 90af a9bd 00fb ccbb 7f64 8abf
00000080: 86ac ac3f f6e5 79bf d207 bdbe fdb3 a13e
00000090: 7409 15c0 d90a 1d3f 64df aabe 26cf 5cbe
000000a0: a0eb 12be ba72 9abf 8345 73bf 3ed1 b23f
000000b0: 0080 4839 dc93 febe d771 213f e901 04c0
000000c0: bf87 793f 083f 933d 005d 6dbb 01c8 0fc0
000000d0: ddf0 a33e ae87 f73e cf09 353f c631 6b3f
000000e0: 0d4a 063f 4ad9 44be ef50 aebe 874e 2abe
000000f0: 3064 983f 5455 153f 3872 30be c08b 033d
00000100: 3606 aa3e cd88 30bf 2e16 fcbe afe2 81bf
00000110: 00c2 073d d9c4 af3e 48d3 d8bf 5902 273f
00000120: c0f1 2a3c f126 1cbf 1205 113f 71f8 a6bf
00000130: c2ea e43e 80ca 13bd 815c 3a3f c094 4abe
00000140: b0de 5dbe ef50 84bf 6036 fdbe 20f0 d63f
00000150: c0d2 aebd 5d95 b73d 964b aa3e 7834 dc3d
00000160: 30fe 973f 6b91 2ac0 5886 d53e 0284 c6bf
00000170: 616b 57bf 7cd5 d0be ec92 8a3e e82e b83d
00000180: fe23 66bf fa82 00be ac15 0cbe 3e23 09c0
00000190: 0eca 5abf 48a9 8c3d f24c 433f d21b 0ac0
000001a0: 7caa 0abf c3de f63e 2c19 02bf 1589 a2bf
000001b0: 7b7d 96bf 79f5 aa3e 4344 84bf be7d eebe
000001c0: 5447 5c3f f22c 453e 31d7 6fbf c414 c83e
000001d0: 2c02 b5bf aa73 e93d 76f8 09c0 6a18 9fbf
000001e0: 2086 ba3e e837 1f3f d842 293f b120 0fbf
000001f0: 5c74 903e ae38 343f a069 133e f060 abbe
-0.10774779 -0.036291838 1.0704616 -2.8692884 0.035625815 -0.5603889 -0.49191004 0.7066574
0.9695115 -0.32610488 0.15983865 0.39836782 1.1870003 -0.15737106 0.029107869 -0.7092215
0.96836036 0.21696666 -0.064802766 0.5076876 0.07555175 1.3263326 0.1806798 -0.8216295
-0.75587595 0.9951029 -0.8109252 0.41177392 1.4439085 -0.08285439 -0.0062555075 -1.0811919
1.349015 -0.9761652 -0.3692003 0.31582633 -2.328702 0.6134468 -0.3337356 -0.21563396
-0.14347696 -1.2066262 -0.9502794 1.3970106 0.0001912117 -0.49722183 0.6306433 -2.0626166
0.9747276 0.07189757 -0.0036218762 -2.2465823 0.32019702 0.48345703 0.7071809 0.91872823
0.5245674 -0.19223514 -0.34046122 -0.16631518 1.1905575 0.58333325 -0.17231071 0.032115698
0.33207864 -0.6895874 -0.49235672 -1.0147303 0.033143997 0.3432987 -1.6939478 0.6523796
0.010433614 -0.6099692 0.5664836 -1.3044568 0.44710356 -0.03608179 0.727974 -0.19783306
-0.2166698 -1.0337199 -0.49455547 1.679203 -0.08536291 0.08964036 0.33260792 0.10752195
1.1874447 -2.6651256 0.4170406 -1.5509036 -0.8414822 -0.40787876 0.27065217 0.08993322
-0.8989867 -0.12549964 -0.13680142 -2.142776 -0.8546456 0.06868225 0.76289284 -2.157948
-0.5416639 0.4821683 -0.5081966 -1.2698084 -1.1757044 0.33390406 -1.0333332 -0.4658031
0.8604634 0.19255427 -0.9368773 0.39078343 -1.4141288 0.11399014 -2.1557899 -1.2429326
0.36430454 0.6219468 0.6611762 -0.5590926 0.28213775 0.70398986 0.14395761 -0.33472395

resnet_model/conv2d_2/Conv2D_bias_fused_bn f4 [64]
00000000: e5a7 3040 89e7 2340 905a 8fbe 1aa2 f63f
00000010: 9c9b 8040 0c0d e23f 0603 3640 4eb9 c7bf
00000020: ace6 3140 d267 a93f 820f 9ec0 371a 6d40
00000030: 27dc bb3f af14 1c40 bf04 0c40 87c7 b4c0
00000040: 98df f83f 39d5 c23f 9c79 983f 95d1 e83f
00000050: deb0 80c0 ba78 3e40 5cf8 a23f 4e54 0a40
00000060: 4b0e 0740 2e0b af3f c0b0 f73f 755f e240
00000070: 5766 de3f ed33 5140 a864 413f c4d6 1dc0
00000080: 3224 0a3f 19bc 8bbf 5cc3 5840 7764 aec0
00000090: c1ca c53f 0bd9 c440 32a3 2dc0 981f 333f
000000a0: e272 68c0 50d1 2740 b96a 0d40 43d9 6540
000000b0: 6d2f 6040 9c03 ff3f efea c4bf dfd6 6840
000000c0: 623c fc3f c548 1340 b40d 2a40 d334 f33f
000000d0: 36c0 f53f e8fc 26bf 8506 1a40 79f8 e33f
000000e0: 862a 883f 320b 2140 40bf 2c3d ce3f 2740
000000f0: a368 3940 efe4 1c40 ee50 a1bf 5c77 3d40
2.7602475 2.5610068 -0.2799878 1.926822 4.0189953 1.7660232 2.8439345 -1.5603426
2.779704 1.3234808 -4.939393 3.704725 1.467656 2.4387624 2.1877897 -5.6493564
1.9443235 1.522132 1.1912112 1.8188959 -4.02159 2.9761186 1.2732043 2.1613955
2.1102474 1.3675287 1.9350815 7.0741525 1.7374982 3.2687943 0.75544214 -2.4662333
0.5396148 -1.0916778 3.3869238 -5.449764 1.54525 6.1514945 -2.7130857 0.69970083
-3.632012 2.6221504 2.2096388 3.5913856 3.5028946 1.9922976 -1.5384196 3.6381147
1.9705927 2.3013165 2.6570864 1.9000496 1.9199283 -0.65229654 2.406648 1.7810203
1.0637977 2.5163083 0.042174578 2.6132693 2.8970115 2.451473 -1.2602823 2.96041

resnet_model/conv2d_19/Conv2D_bias_fused_bn f4 [128]
00000000: f004 e2be 76aa 763f 44fe 8dbf 108e a1be
00000010: 14a7 9dbf c0f6 893e 6e47 cd3f 7e3b d0be
00000020: edae c83f 7106 4cbf b4de fcbe c0a8 94be
00000030: cf23 abbe b268 29bf 9e7c 0fbf c1a2 0fbf
00000040: 54a4 9abf b0fa 523d 64ae 383e e04d d0bc
00000050: 05a0 55bf c6a3 d53e 3595 70bf 169e c93f
00000060: 324b 023f 804e 47be a9e3 8bbf 4c16 f4be
00000070: de49 653f bae1 44bf ca18 a9be 94c5 b03e
00000080: eaa3 1bbf 886a 13be 289b b3bd d6cc d7be
00000090: a5ae 9e3e eaa1 e8bf 017b b23f 8675 8b3f
000000a0: f82b 193e 9d37 78bf e06f 393d 7c4c a33f
000000b0: 51a8 e83e bd58 973e acb9 00c0 e38e b1bf
000000c0: a40b 0f3f cdab df3f d894 b03d 73d4 49bf
000000d0: b07d babf 2a24 61bf a1e8 75bf 4a02 0ebe
000000e0: c8a2 08bf 02b3 893f 8633 52bf ce2a 27be
000000f0: fcb5 62bf 99c1 803f e58f 823f 5919 a73f
00000100: 7277 fcbe 8b37 df3f 0cee 0b3f 6eaa dbbf
00000110: 3a76 2dbf 1696 7abf b8ee 80bf ef1b 78bf
00000120: ad2b cebf 3e76 d7be a4c3 ffbe 1a66 bebe
00000130: 0a62 e73e 8037 ae3e 23ba a9be 5ea7 bb3f
00000140: 9091 82bf 0426 b83f 544b b23e 97dd 07bf
00000150: 5096 9e3c 145d a43f 9146 3cc0 f705 47bf
00000160: 64b9 0d3f c056 953c 6221 913f dfbe 17bf
00000170: d89a ac3f 141a 61bf 80a0 fcbe 809a 9abc
00000180: 9987 83bf 5d57 3b3f ee37 98bf 9c1e b8bf
00000190: 30cb 9dbd 5e4c ce3e 0a67 c4be 1e3b b03e
000001a0: 96a4 713f 4878 f73e aa92 f4be 2618 ab3f
000001b0: 3227 69bf 36cc adbe f1fe 083f 98ad 443e
000001c0: 86d3 8bbe 95be 42bf 0c9b 8bbe 4e54 893f
000001d0: 68b5 9bbe 7363 45bf bfba 4fbf cfa2 a83f
000001e0: 4c81 2a3e 4030 0abd d47a 39bf 24f4 473f
000001f0: b285 b43f 9cb1 e13d d83a 5e3e 267a 1abf
-0.44144392 0.9635385 -1.1093221 -0.31553698 -1.2316613 0.26946068 1.6037424 -0.4067039
1.5678383 -0.7969733 -0.4938866 -0.29034996 -0.33425757 -0.6617538 -0.56049526 -0.5610772
-1.2081399 0.051508605 0.18035275 -0.025427759 -0.83447295 0.41726512 -0.9397767 1.5751369
0.5089599 -0.19463539 -1.0928851 -0.4767326 0.8956584 -0.7690693 -0.33026725 0.3452574
-0.6079699 -0.14396107 -0.08769828 -0.42148465 0.30992618 -1.8174412 1.3943788 1.089524
0.14958179 -0.9695986 0.045272708 1.2757716 0.45440915 0.2955989 -2.0113325 -1.387173
0.5587714 1.7474304 0.0862214 -0.78839797 -1.4569607 -0.87945807 -0.9605809 -0.1386806
-0.53373384 1.0757754 -0.8210987 -0.16324922 -0.88558936 1.0059081 1.0200163 1.305461
-0.4930988 1.7438825 0.54660106 -1.7161386 -0.67758524 -0.9788526 -1.0072851 -0.96917623
-1.6107079 -0.420824 -0.4995395 -0.37187272 0.45191985 0.34026718 -0.33149824 1.4660451
-1.0200672 1.4386601 0.34823096 -0.53072494 0.019358784 1.2840905 -2.941807 -0.77743477
0.5536101 0.018229842 1.1338313 -0.5927562 1.3484755 -0.8793042 -0.49341202 -0.0188725
-1.0275756 0.7318018 -1.1892068 -1.4384341 -0.077047706 0.4029264 -0.38359863 0.34420103
0.94391763 0.48333955 -0.47768146 1.3366745 -0.9107543 -0.33944863 0.5351401 0.19206846
-0.27309817 -0.76072055 -0.2726673 1.0728853 -0.3041184 -0.7710487 -0.81144327 1.3174685
0.16650885 -0.03373742 -0.72453046 0.78106904 1.41033 0.110202044 0.21702135 -0.60342634

resnet_model/conv2d_18/Conv2D_bias_fused_bn f4 [128]
00000000: 6655 403f 9bb1 09bf 00e8 353b b4ae 8fbd
00000010: 00ea a9bb 8091 b5be 3101 94be 7606 cabe
00000020: 411e a3bf fe6a 543f e5cd 87bf ba9e ce3e
00000030: fc25 c63f ac86 96bf 0c5a 103e 02e7 263f
00000040: c2b4 02bf 6850 253f 828b 9cbe 85fd a4bf
00000050: d291 24be 5e81 683f a477 5f3e 3a08 1f3f
00000060: 51b8 413f aad8 b33e 7483 d53d 0eff 373f
00000070: a99b 02bf 9a25 633e 62bf f9bd 8e51 103f
00000080: b582 b23d 6c94 f13e 4a5c 1a3e 20d7 033e
00000090: e8f4 35bd ce1c bf3e 410d 063e 2aa9 3d3f
000000a0: 53eb a9be 64ca 303f 6e2d 0b3f 7589 83bf
000000b0: dc39 f33d bf8d e1be c677 5c3f 002b 983d
000000c0: d5b1 73bf a219 46be 9835 7f3f 98ef b13e
000000d0: 3ca7 573f 780f 11bf a588 c33d b07e ad3c
000000e0: 35af 55bf 7c23 80be 9a6b 883f 3818 5a3e
000000f0: 7524 a9be 9360 10bf 66fc 78be 16f6 583f
00000100: 6a7b ccbe fc49 163e 1175 f1bd 8818 843f
00000110: 21fa aabf 385a 0b3f 4e35 563f bc85 9dbe
00000120: 8135 bdbf 2458 c7be d66a 943e 7c03 583f
00000130: 33d1 4e3f b0b5 8e3f 369b 743f 900f 513f
00000140: 043c 86bf 6731 9e3f 08ba 4a3f b73b d13e
00000150: d5b3 dbbe 1693 35be 77ae 173f a044 073f
00000160: e43e 9bc0 f3e7 643f 641f 263f be7b 703e
00000170: 5f4b efbe b048 753d f8c8 a6bf 0403 323f
00000180: ca48 743e bfdd 84be 1799 9b3f b250 fdbe
00000190: 78d1 393f ffc9 513f fa97 6e3f e02b 473c
000001a0: 188c 80bf 7491 12bf 6048 a9bd e53d c73f
000001b0: 5822 803f a3e8 2c3e dae7 8b3e 04ac 85bd
000001c0: 854f bf3e ce82 c2be 305f fbbe 8048 513f
000001d0: 0794 793f 56c6 6d3f 1ffe d43e c04e 62bf
000001e0: bde4 4f3e 9652 a1be 7ea7 6d3f 559f 303f
000001f0: 44e0 f9bd 4a1c 11bf bdd8 4dbf e628 263f
0.7513031 -0.5378663 0.002775669 -0.07015744 -0.0051853657 -0.3546257 -0.2890716 -0.39458054
-1.2743608 0.8297576 -1.0609709 0.40355474 1.5480342 -1.1759849 0.1409685 0.6519624
-0.51057065 0.64575815 -0.30575186 -1.2889868 -0.16071251 0.908224 0.21822983 0.6212193
0.7567187 0.3512624 0.10425463 0.7187356 -0.5101877 0.22182313 -0.121947065 0.5637444
0.08716337 0.4718355 0.15074268 0.12875032 -0.044423014 0.37326664 0.13090993 0.7408625
-0.3318735 0.69058824 0.54366195 -1.0276324 0.1187627 -0.44053456 0.8612026 0.074300766
-0.95193225 -0.19345716 0.9969115 0.34753108 0.84239554 -0.5666423 0.09547547 0.021178573
-0.8347047 -0.25027072 1.0657837 0.21298301 -0.33035627 -0.5639736 -0.24315032 0.847505
-0.39937907 0.1467666 -0.11789907 1.0319986 -1.3357583 0.5443454 0.83675086 -0.30766094
-1.4781953 -0.38934433 0.2898776 0.84380317 0.8078796 1.1149197 0.95549333 0.8166437
-1.0487065 1.2358826 0.7919011 0.4086587 -0.42910638 -0.1773189 0.5925059 0.5283909
-4.851427 0.89416426 0.6489165 0.23484704 -0.4673719 0.059883773 -1.3030081 0.6953585
0.23855892 -0.2595043 1.2156094 -0.49475628 0.7258525 0.81948847 0.9320065 0.012156457
-1.0042753 -0.57253194 -0.082657576 1.5565764 1.0010481 0.16885619 0.27325326 -0.0652695
0.37365356 -0.3799042 -0.4909606 0.8175125 0.97491497 0.9288076 0.4160013 -0.8840141
0.203021 -0.3150832 0.928337 0.6899312 -0.122009784 -0.5668379 -0.8040884 0.64906156

resnet_model/conv2d_16/Conv2D_bias_fused_bn f4 [128]
00000000: 1abc b53e 22d4 6ebf f09f 4abd b4d1 ddbe
00000010: 4d42 f23e 5c89 4ebe 8905 51bf cca5 46bf
00000020: 425f 2b3f b976 91bf b6fc 6abf 4a57 0ac0
00000030: 0c9e 9bbf 48b6 7bbf 4f95 1d3f a457 05c0
00000040: 1e4f a2bf 5852 2a3e 827d 4fbf 94e6 1a3e
00000050: 4e90 99bf b08f d8be b047 673f bcc7 51bf
00000060: f469 6cc0 9896 b2bf b3e9 b9bf 1470 99bf
00000070: 361a 7b3f 5326 94bf 2217 25c0 0875 6bbd
00000080: ca45 5abf 808b 373c 7863 be40 0a33 f3bf
00000090: 927d 8f3e 18e8 31be b7e4 2c3f 7d39 d0bf
000000a0: 4301 0bbf 445b 87bf 2f95 52c0 7558 c3bf
000000b0: cc51 ecbe 965f 10c0 a547 953f 5b7e 16c0
000000c0: 65e6 2bc0 ed98 87bf d493 e4bf 84e9 c3bf
000000d0: 8eb0 0b40 4664 87bf 9bac a4bf 8006 02c0
000000e0: 84b6 583f 20b6 9abf 1964 9abf e066 03bf
000000f0: 569f 07bf a882 783f 9044 623e f493 85bf
00000100: 7219 68bf e8af 0a40 325f 54be 28b3 d6bf
00000110: a829 42bf 4adc a0be 4af9 773f 848a 3ac0
00000120: 5f0a 15c0 2cb9 07c0 a68b 7dc0 ea2f 54bf
00000130: 8962 aebf 7fb6 85be 43fd 2f3f d136 c73f
00000140: b8b2 f1bf 26bf 87bf b741 a63f 7bf4 27bf
00000150: 8ad9 a4be e050 efbf 5036 ebbe 1ad1 74bf
00000160: 643f 993f ec00 85bf 5388 3ec0 9ffd 45bf
00000170: cbd7 b7bf 2529 d43f a9c0 b5bf f2bf 3cc0
00000180: 2bb7 92bf d225 dbbf 3292 5dc0 be3e d0bf
00000190: 5a8a b3be 5504 70bf 2688 273f e451 dabf
000001a0: dc16 43be 34ba 8c3f 6082 14c0 a495 c9bf
000001b0: 111d 94bf f4c0 00c0 4458 fabe 25b6 bc3f
000001c0: cd9c 1fc0 e560 65bf ff7e bdbf c82c 51c0
000001d0: 2af1 073e dd53 8cbf 2072 fd3c 095d 25c0
000001e0: a616 31c0 debc 95bf a33c 52bf d0bb 7bbf
000001f0: 50c7 f03c 7abd 16c0 cf01 963f 0073 293b
0.35495073 -0.9329244 -0.049468935 -0.43324053 0.47316208 -0.20169586 -0.8164907 -0.77596736
0.66942227 -1.1364356 -0.91791856 -2.1615777 -1.2157607 -0.98325014 0.6155595 -2.0834742
-1.2680395 0.16632974 -0.81050885 0.15127021 -1.1997163 -0.42297125 0.9034376 -0.81945395
-3.6939669 -1.3952208 -1.4524444 -1.1987329 0.9808687 -1.1574196 -2.579537 -0.057484657
-0.8526274 0.011202693 5.949642 -1.8999951 0.2802549 -0.17373693 0.6753649 -1.6267544
-0.542988 -1.0574727 -3.2903554 -1.526137 -0.46156156 -2.255834 1.1662489 -2.3514621
-2.6859372 -1.0593544 -1.7857614 -1.5305638 2.182651 -1.0577476 -1.2865175 -2.0316467
0.84653497 -1.208683 -1.2061797 -0.5132885 -0.529775 0.97074366 0.22096467 -1.0435777
-0.90663826 2.1669865 -0.20739439 -1.6773424 -0.7584481 -0.31418067 0.9686476 -2.9147043
-2.328758 -2.120677 -3.9616485 -0.8288561 -1.362382 -0.26115796 0.6874582 1.5563604
-1.8882666 -1.0605209 1.2988805 -0.6560742 -0.3219722 -1.8696556 -0.45939875 -0.95631564
1.197247 -1.0390906 -2.9770706 -0.7734012 -1.436273 1.6575056 -1.419942 -2.9492154
-1.1462148 -1.7120917 -3.462048 -1.6269147 -0.3506649 -0.9375661 0.6544212 -1.7056241
-0.19051689 1.0994325 -2.3204575 -1.5748792 -1.157137 -2.011777 -0.48895466 1.4743086
-2.4939454 -0.89600974 -1.4804381 -3.2683582 0.1327559 -1.0963093 0.030938208 -2.5838034
-2.7670074 -1.1698263 -0.82123774 -0.98333454 0.029391915 -2.3553147 1.1719302 0.00258559

resnet_model/conv2d_15/Conv2D_bias_fused_bn f4 [128]
00000000: 3554 173f 285a bebe 508e f8ba 496a cfbf
00000010: de58 9b3f 629e 4fbf 957e 5e3e 3efb 3540
00000020: a4f6 04be dcc2 153e 882a 093e 16e6 373f
00000030: 091a 2f3f 180d 0abf 9672 843f 6543 f33f
00000040: 8201 ac3f c633 82c0 0cb6 eb3d d3e4 0940
00000050: 6910 0b3f 4ed5 00bf e672 2e3e e6b2 933e
00000060: 8735 cd3e d8ec ad3f 10dd b23e 509a 5a3f
00000070: a3f9 a33f 40d2 9ebc 9425 233f 9bfe 873f
00000080: 55f6 c33e 9803 e7be bbd1 e0bf c428 40bf
00000090: fa5a 37be 6211 ee3f 7e69 053f 8094 2fbe
000000a0: 3dab 043f b417 b6bd 282d 94bf 8d9f 3e3f
000000b0: 86ac 36bf 9bbc 9bbe 71ee 0d3e 4c7b 04be
000000c0: c665 133e 3bda 88bf f4e7 ba3f 4cfc 723f
000000d0: 8634 033f a288 a1bf 77ac 17c0 f68c 1b3f
000000e0: 499f 433f 7218 35c0 40fe f23e e0da efbc
000000f0: 4fb7 2b40 c90d 71c0 78e2 5c3e 64b3 cc3f
00000100: 8087 0ebc 1b04 82be aca1 e8bf 8859 bcbf
00000110: de6e 823f 7c8d 0b3e f472 13c0 7084 f43e
00000120: 1640 a3bf eca7 82bf aef1 a13d 4934 0c3f
00000130: 0192 2b3f 6423 5a3f 0052 8d3f d183 e53f
00000140: a008 fbbc 9f33 b6bd 9db8 943f dd22 053f
00000150: b5d8 553f df39 dbbf ee73 2f3f 9311 6a3f
00000160: 60db 5a3c 9a88 53bf 8841 1c3f 18d9 e0be
00000170: 8a8d c83e 3b60 4ebf 9874 6d3f 5bab 91bf
00000180: 68c5 d13e 5eb9 4e3e 71c0 b93e d0a6 5b3f
00000190: 4247 2d40 1613 96bf f2d8 e3be bb09 a6be
000001a0: 37dd 24be 9bab acbe 5d8c ab3e 66ec 37bf
000001b0: be31 bc3f 125a 70bf 327c d23f bcab 14bf
000001c0: 92fb 06bf 9daa 9d3f 28df 2dbf 5ab6 9c3e
000001d0: 73aa 963f f305 4a3f 38c3 533f 6a1d 80be
000001e0: c88c d53d 59f0 f2bd d380 99bf 4b7f 1740
000001f0: 12ea 893f 242d 3c3f ca13 fbbe 96e3 493e
0.59112865 -0.3717816 -0.0018963311 -1.6204311 1.2136495 -0.8110105 0.21727975 2.8434596
-0.12984711 0.14625114 0.1339513 0.7183546 0.683991 -0.5392623 1.0347469 1.9004942
1.343796 -4.06882 0.11509332 2.1545913 0.54321915 -0.5032548 0.17036018 0.28847426
0.400799 1.3587904 0.34934282 0.8539171 1.2810558 -0.019387364 0.63729215 1.0624574
0.38273874 -0.4511993 -1.7564005 -0.75062203 -0.17905799 1.8599055 0.52114093 -0.17146492
0.5182379 -0.0889124 -1.157628 0.74462205 -0.71357 -0.30417332 0.1386049 -0.12937659
0.14394292 -1.0691599 1.4602036 0.94916224 0.5125202 -1.2619822 -2.3699014 0.60761964
0.76414925 -2.829617 0.47459602 -0.029279172 2.6830633 -3.7664664 0.21570766 1.5992246
-0.008699298 -0.25393757 -1.8174338 -1.4714823 1.0190084 0.13628191 -2.3038912 0.47757292
-1.2753932 -1.0207496 0.07907425 0.5476728 0.6701966 0.8521025 1.104065 1.7930852
-0.030643761 -0.08896565 1.161884 0.5200632 0.83533794 -1.7127036 0.6853627 0.91433066
0.013357967 -0.8263031 0.6103749 -0.4391563 0.39170486 -0.80615586 0.9275603 -1.1380419
0.40970922 0.201879 0.36279634 0.8580141 2.7074742 -1.1724575 -0.44501454 -0.324293
-0.16100012 -0.33724675 0.33505526 -0.7184509 1.470268 -0.93887436 1.6444151 -0.58074546
-0.52727616 1.2317692 -0.67918634 0.30607873 1.1770767 0.7891533 0.82719755 -0.2502244
0.104272425 -0.11862249 -1.1992439 2.3671443 1.0774558 0.7350638 -0.49038535 0.19715723

resnet_model/conv2d_13/Conv2D_bias_fused_bn f4 [128]
00000000: b0c2 b83f ccc5 bb3f 40af a5bd d0df b03f
00000010: 60c3 ebbe c640 7f3f 742e 96bd a524 3b3f
00000020: 2822 8fbe f494 a93f d4ad d93e 7010 3f3f
00000030: 9617 b4be fe75 f03f eb02 593f 8440 883e
00000040: 5233 483f b037 8bbf 6cbd 2a3f 56a2 fc3e
00000050: a682 b53e e5f2 303f f03e c23e 4032 56be
00000060: a65e 14bf 54cd 06be 554c 513f 98a1 e43f
00000070: 309d d23f 37a7 d8be c9df 81be 4c2f d23f
00000080: d856 1b3f c2b4 0abe e0f5 2abf 5a1f 7cbe
00000090: f6ed 5bbe 455a c5be 4555 ba3e f8ab bc3f
000000a0: 61f6 af3f 086c fa3e 30db 083f d2bb e03e
000000b0: bdde ba3e 90b7 a9bd 46da 873e af62 b73f
000000c0: 402f db3c 00fa 103f a90c 323f 2e7f 433f
000000d0: 4337 883f 10fb 2c3d c223 ef3f d8ac 18bf
000000e0: 4b56 303f 5fbd 47bf 382f 9d3f d913 0d40
000000f0: 83df ab3e 04db 7e3f e05a 7e3c 4924 8a3f
00000100: 0f78 6a3f 9057 983b 26e6 a33e e5f3 9d3f
00000110: c294 19bf bc65 d73f fe1e c93e e0eb 263c
00000120: cad9 803f c4fd a9be 542d c6bd 70e4 cc3f
00000130: a05f b53c 68ec 17bd 4833 98bd 7512 12bf
00000140: 8650 933d dc85 23bf 5f32 223f 6880 3b3e
00000150: 391a 953f 2fb9 b03f 6ad4 a93d 4620 7f3f
00000160: dea0 913f 888b 503d 4778 7dbf 838c 0440
00000170: 6fec 2cbe a875 56bd d6da 52bf beb0 6d3f
00000180: 558c 8e3f 328e ef3f dce6 3ebf f90b 963f
00000190: 5a45 3dbf d900 71bf 745c f7be 1f82 043f
000001a0: 5805 ad3f 30e0 913e 3a9c 1abf b39f 153f
000001b0: 1f7f a7be d11a b03e 78c8 983f 66f9 9c3f
000001c0: e8c1 bd3f 768a 5e3f 405f 873f 20bb 6b3e
000001d0: 7a50 df3e 4061 4ebc 2e24 643f f093 8d3f
000001e0: 0401 903f 3d59 c43f bffa a2bd e6cd 053f
000001f0: 7f16 27be de97 3e3f 6cc2 61bf 3c0b 05be
1.4434414 1.4669738 -0.08090067 1.3818302 -0.46047497 0.9970821 -0.07333079 0.7310279
-0.27955747 1.3248582 0.42515433 0.74634457 -0.35174245 1.8786008 0.8477008 0.26611722
0.7820331 -1.087637 0.66695285 0.49342602 0.3545124 0.6912063 0.37938643 -0.20917606
-0.5795692 -0.13164264 0.817571 1.7861814 1.645422 -0.42315075 -0.25366047 1.6420684
0.6067939 -0.13545516 -0.66781425 -0.24621335 -0.21477494 -0.38545433 0.3639318 1.4739981
1.3747064 0.48910546 0.53459454 0.43893296 0.3649806 -0.08286965 0.26533717 1.4326991
0.026755929 0.5663147 0.6955057 0.76365936 1.0641865 0.04223162 1.8682787 -0.5963874
0.6888167 -0.7802333 1.2280035 2.2043364 0.33568963 0.9955294 0.015524596 1.0792323
0.91589445 0.00464911 0.32011527 1.2340056 -0.5999261 1.6827922 0.39281458 0.010188073
1.0066464 -0.3320142 -0.096766144 1.6007214 0.022140324 -0.03709069 -0.07431656 -0.57059413
0.07193093 -0.6387613 0.6335811 0.18310702 1.1648628 1.3806514 0.08292468 0.9965862
1.1377218 0.050914317 -0.99011654 2.0710762 -0.16887067 -0.0523583 -0.8236517 0.9284781
1.1136576 1.871527 -0.74571013 1.1722404 -0.7393395 -0.9414192 -0.48312724 0.5176105
1.3517256 0.28491354 -0.6039463 0.58446807 -0.32714173 0.3439546 1.1936178 1.226361
1.48248 0.86930025 1.0575943 0.23020601 0.43616086 -0.012596428 0.89117706 1.1060772
1.125031 1.5339733 -0.07957982 0.522673 -0.16317175 0.7445048 -0.8818729 -0.12992567

resnet_model/conv2d_12/Conv2D_bias_fused_bn f4 [128]
00000000: 086b 973d 7087 c63e 4faa 05c0 c4a6 d5be
00000010: 08f8 0c3f 8f69 5b3f 65ae e13f 0443 22c0
00000020: b005 e43e 52b2 423e 603c b5bc 98b8 b33e
00000030: 4f74 2b3f 5f2d 043f 3b41 7cbf 71e4 013f
00000040: 90b5 3cbe 5bfb 083f 7079 2040 2f7c 993f
00000050: 4626 e63e 5461 f0be 8c54 043e a39f 9ebf
00000060: 4896 7bbe d659 123f 5c8d 6e3f fcf0 163f
00000070: 205b 68be 68f5 7a3f ce9c 533f c59a 7840
00000080: 9049 8b3f e01b ae3f f693 053f de24 1540
00000090: ecfb 6c3f b080 223f e9fc 5f3f 5554 483f
000000a0: 0e7e bd3e 8158 a03f 42b3 fc3e a03d 4b3d
000000b0: 4a4f c03f d8c7 fd3e d021 4a3f 6a24 883f
000000c0: ea4e b83f 3299 1abe f441 7cbe 39b4 3dc0
000000d0: 8447 613e 2844 f23e 004b 2f3d ea4b f2be
000000e0: 40b7 87bf 577c 333f e2c9 e63f 620d bf3e
000000f0: e0b3 a63f 168c 3e3f 5057 a33d 04e2 203e
00000100: 7234 c2be 24b0 b43f 7ada 1a40 5ba9 ebbf
00000110: ad4f 1b3f b849 ed3e 3024 143f 0491 a43e
00000120: 5884 a13e a878 73be 02db 3e3f 2dbe 2240
00000130: 7eda 293f e8f1 953e 75a9 c2bf 6a3d 9cbf
00000140: 38bc b13e 8d87 8cbe c815 e43f fca7 8d3f
00000150: 5e71 c9bf 4b28 d3be d8ce 1dbe e8d8 bf3e
00000160: 0ad8 543f af2d 4a3f 9fb4 1840 9c58 eb3e
00000170: 63bf 4f3f d07e 233f 140b 0540 7670 f13e
00000180: b6f4 d13f a0af 103e 5e86 cb3e 126b a83f
00000190: a43b df3e 323d 0040 2f0c c53f 16ba 223e
000001a0: 3cfd 6d3f 88ab acbe acd6 3740 90c2 05c0
000001b0: 44e4 043e 3c1b ccbe aae0 533f 00de 363f
000001c0: 10e8 eebf e835 9d3e 73b0 8f3f ef7c 31bf
000001d0: 5c7e 6abd d360 b93e 1e45 8c3f df9f 8b3f
000001e0: b93d 853f aca1 443f 386d b43d 04dd 02bf
000001f0: e23b 9dbf fed6 093f 6426 8f3f dd74 5dbf
0.073934615 0.38775206 -2.0885198 -0.41728795 0.55065966 0.85707945 1.7631346 -2.5353403
0.4453559 0.19013336 -0.022123516 0.3510177 0.6697435 0.5163173 -0.98537034 0.507392
-0.18428636 0.5350854 2.507412 1.1991023 0.44951075 -0.46949255 0.12922877 -1.2392467
-0.24569046 0.5716833 0.9318445 0.5896146 -0.22691011 0.9803071 0.8266114 3.8844464
1.0881824 1.3602257 0.52178895 2.3303752 0.925719 0.6347761 0.87495285 0.7825368
0.37010235 1.2527009 0.49355513 0.049619317 1.5024197 0.4956653 0.78957844 1.0636113
1.4399083 -0.15097502 -0.24634534 -2.964125 0.21999937 0.47317624 0.042796135 -0.47323543
-1.0602798 0.701116 1.803036 0.37314898 1.3023643 0.74432504 0.07975638 0.15711218
-0.37930638 1.4116254 2.4195848 -1.8411058 0.6066845 0.46345305 0.5786772 0.32141888
0.31546283 -0.23776495 0.7455293 2.5428574 0.6634902 0.29286122 -1.5207964 -1.2206242
0.34713912 -0.27447167 1.7819147 1.106689 -1.5737722 -0.4124168 -0.15410936 0.37470174
0.8314215 0.7897596 2.3860242 0.4596604 0.8115141 0.63865376 2.0788012 0.47156113
1.6402805 0.14129496 0.39750952 1.3157675 0.4360019 2.003735 1.5394343 0.15891299
0.9296453 -0.33724618 2.8724775 -2.0900002 0.12977701 -0.39864528 0.82764685 0.71432495
-1.866457 0.3070519 1.1225723 -0.6933126 -0.057249412 0.36206684 1.0958593 1.0908164
1.0409461 0.7680919 0.08809894 -0.51118493 -1.22839 0.5384368 1.1183591 -0.86506444

resnet_model/conv2d/Conv2D_bias_fused_bn f4 [64]
00000000: c3d9 5640 4af8 c0bf 8007 e13f 0cb0 6040
00000010: ef83 3bbf 2f3c e93f 1796 8b3f bc15 16bf
00000020: 0e76 e13f 31d6 d03f 7f8b da3f 6d06 443f
00000030: 0eb8 9d3f af38 d13f d51f d23f 93ae 89c0
00000040: ecd6 e73f 400a 463f 2328 a33f de7f 7140
00000050: 3c76 d03f 4548 88c0 307f d83f ad38 e940
00000060: 9533 9ac0 188d da3f e722 843f 818c b03f
00000070: 52be 9e40 4525 e73f e264 ea3f cd43 dc3f
00000080: 4b68 e13f f0d2 5640 c193 fd3f a8bd e13f
00000090: 27e5 9c3f df5d f8be 2b20 833e 2ddc fdbf
000000a0: b9e9 7d40 65f7 19c0 5217 de3f 53e1 1b40
000000b0: 2d1e e63f fcd0 d83f c8d2 cb3f d383 61c0
000000c0: 1b27 cd3f 2346 e83f 078f 453f ad4a f740
000000d0: 06b3 553f 5407 d83f 9830 c03f 4c29 df3f
000000e0: d0aa 3ec0 c411 d43f b666 dc3f c580 b13f
000000f0: 6cad 6240 1afe d33f cf74 8b40 6190 da3f
3.3570411 -1.5075772 1.7580414 3.510745 -0.7324819 1.8221492 1.0905179 -0.58626914
1.7614152 1.6315366 1.7073821 0.76572305 1.2321794 1.6345423 1.6415964 -4.3025603
1.8112464 0.7735939 1.2746624 3.7734294 1.6286082 -4.258822 1.6913815 7.2881684
-4.8187966 1.7074308 1.0323151 1.3792878 4.9607325 1.8058249 1.8312037 1.7208191
1.7609953 3.3566246 1.9810716 1.7636003 1.2257432 -0.48509118 0.2561048 -1.9832817
3.9673903 -2.4057248 1.7350867 2.4356277 1.7977959 1.6938777 1.59237 -3.523671
1.6027559 1.8146404 0.7717137 7.7278657 0.83476293 1.6877236 1.501483 1.7434478
-2.9791756 1.6567922 1.7218845 1.3867422 3.5418348 1.6561921 4.358009 1.7075311
